with_model_v3/phishsafe_sdk/assets/model_light.tflite (tflite, 2360 bytes, 3 tensors)

arith.constant f4 [1, 8]
-3.4870183 -3.4540734 3.7413044 -3.9624095 2.8658159 -4.3663583 4.109041 -3.9346333
00000000: 4f2b 5fc0 8a0f 5dc0 8871 6f40 1e98 7dc0
00000010: 8769 3740 35b9 8bc0 447d 8340 08d1 7bc0

sequential_1/dense_1/BiasAdd/ReadVariableOp f4 [8]
-2.2024891 -0.55370873 0.97139287 -0.31554922 2.6896794 -0.68748707 3.134061 -0.2367043
00000000: 95f5 0cc0 dbbf 0dbf 34ad 783f ab8f a1be
00000010: b523 2c40 27ff 2fbf 7594 4840 9d62 72be

sequential_1/dense_1/MatMul f4 [8, 19]
1.211411 0.21280502 0.02774126 -0.33391005 -0.71410066 -3.6488736 -0.09137289 -0.19188783
0.33841413 0.66506064 0.6847865 1.1421449 0.50360537 0.7421617 1.3381705 0.18077856
0.83480793 0.4875364 -0.35195607 1.7154455 0.14669898 0.8208665 -1.9674304 0.19330546
-0.119686335 1.2590411 0.66579187 0.4329794 -0.87616354 -0.8991646 -1.2878351 1.5842624
1.4191297 -1.9074721 -0.964608 1.7265756 -0.7504445 0.764419 0.8988047 0.17710392
0.029088456 0.0036556844 0.621707 1.4348214 0.117651895 -0.004401708 0.0071039516 -0.36990893
-0.2751043 -1.1760108 0.541841 0.6963567 -0.10152772 -1.5288215 2.0164506 -1.6520107
-1.474585 0.042287033 0.11023481 -0.022768052 -0.29964238 -2.4567525 -6.2672806 0.50211525
0.30585974 -0.011084868 0.5268327 -0.37976193 0.12465819 -0.05985803 -0.25421 -1.0173016
0.9525552 0.63513136 -0.04844865 -2.7568262 0.832413 0.17313804 0.5086788 -0.0012103857
-0.5106032 1.7608993 -0.59215313 0.01778005 1.0070944 1.7209798 0.65237606 1.3418936
0.5023413 1.5966697 0.77454346 1.3764694 0.7012363 0.3864191 -1.2077752 1.6783803
0.4754257 -0.43169868 -0.62115514 0.79144174 0.03767882 0.2429177 0.21841075 -1.5173374
-1.1825291 -1.905584 -0.16660428 0.61154914 -0.7085029 -1.9318771 0.68758935 0.65321094
0.766631 2.6596422 1.211926 0.3121038 0.0872881 -0.528505 -1.7542838 -0.7406524
-0.033237055 0.14815429 -0.45624545 -0.44516242 -0.7767227 0.3095068 0.60026336 -0.40231726
-1.8169669 1.0753261 -1.4636526 0.19498639 2.8937998 1.2933187 0.5100227 -0.1673116
-0.61451215 -3.3217874 -7.7733617 -0.523503 -0.12630086 0.60683733 0.08311816 0.048822112
-0.96458006 0.7064562 0.7481225 -0.21966419 0.20804246 1.1570036 0.2264513 -1.9079303
00000000: 840f 9b3f 8fe9 593e a441 e33c 42f6 aabe
00000010: 4dcf 36bf 2587 69c0 b621 bbbd 3e7e 44be
00000020: 9e44 ad3e 6a41 2a3f 2b4e 2f3f ce31 923f
00000030: 48ec 003f 4ffe 3d3f 2c49 ab3f 041e 393e
00000040: f9b5 553f 5f9e f93e 9633 b4be b893 db3f
00000050: 4238 163e 4f24 523f c2d4 fbbf def1 453e
00000060: 1c1e f5bd 4228 a13f 5671 2a3f 7aaf dd3e
00000070: 414c 60bf a72f 66bf c8d7 a4bf 1cc9 ca3f
00000080: 0ba6 b53f 0c28 f4bf 8df0 76bf 6e00 dd3f
00000090: 211d 40bf f7b0 433f 1118 663f bb5a 353e
000000a0: ea4a ee3c 3594 6f3b 3128 1f3f 3aa8 b73f
000000b0: 7af3 f03d 343c 90bb 44c8 e83b b464 bdbe
000000c0: 79da 8cbe 8687 96bf 17b6 0a3f 6f44 323f
000000d0: c4ed cfbd 6cb0 c3bf 870d 0140 1675 d3bf
000000e0: 34bf bcbf 2b35 2d3d cac2 e13d 1184 babc
000000f0: ba6a 99be 6f3b 1dc0 908d c8c0 a08a 003f
00000100: a699 9c3e 4e9d 35bc 82de 063f 2870 c2be
00000110: cb4c ff3d b22d 75bd d027 82be f036 82bf
00000120: a8da 733f f897 223f 1772 46bd d76f 30c0
00000130: 0519 553f 194b 313e c638 023f cea5 9eba
00000140: e4b6 02bf 2665 e13f 5997 17bf 78a7 913c
00000150: 78e8 803f 1149 dc3f 1e02 273f 2bc3 ab3f
00000160: 7099 003f ac5f cc3f 7b48 463f 2630 b03f
00000170: 3984 333f b9d8 c53e 6198 9abf 2ad5 d63f
00000180: ff6a f33e 9c07 ddbe 0604 1fbf ed9b 4a3f
00000190: 1b55 1a3d 6bbf 783e 11a7 5f3e 1d38 c2bf
000001a0: 1d5d 97bf 2dea f3bf 509a 2abe 7c8e 1c3f
000001b0: 7260 35bf c047 f7bf db05 303f d538 273f
000001c0: ee41 443f 9437 2a40 6420 9b3f 12cc 9f3e
000001d0: 1ac4 b23d 1b4c 07bf 5f8c e0bf 659b 3dbf
000001e0: 9423 08bd c2b5 173e 0199 e9be 54ec e3be
000001f0: 4dd7 46bf ad77 9e3e dcaa 193f 87fc cdbe
00000200: 5f92 e8bf 49a4 893f f858 bbbf 83aa 473e
00000210: 0434 3940 788b a53f d990 023f bb53 2bbe
00000220: ab50 1dbf 2a98 54c0 61bf f8c0 4b04 06bf
00000230: 0355 01be b159 1b3f db39 aa3d b2f9 473d
00000240: b8ee 76bf 50da 343f f584 3f3f a6ef 60be
00000250: 1509 553e b218 943f d9e2 673e 0f37 f4bf
