with_model_v1/mt_phishsafe_sdk/assets/models/model.tflite (tflite, 2772 bytes, 3 tensors)

arith.constant f4 [1, 6]
00000000: 60c6 a83e e88a 70be f468 e33e b04c 53bd
00000010: fa19 6cbf 8036 633d
0.32963848 -0.23490489 0.4441601 -0.051586807 -0.9222714 0.055471897

arith.constant1 f4 [6, 12]
00000000: e0b7 96bd 809b 7e3d e098 473e ea1e a53e
00000010: e01e e1bc 8a31 11bf d0f8 e83e 50a4 0ebf
00000020: efa9 91be d814 a7bd 1083 fd3d e010 f03e
00000030: d762 05bf 488c 6cbe e56e efbe acc5 813e
00000040: 1838 c23d 34fb 0a3f abe4 81be dc38 55be
00000050: 386d 043f 3c33 d5bd 682d f3be 54bc bb3e
00000060: e02a e93d 5c3d c83e c00f 2abc f8aa 1c3e
00000070: bde1 02bf b8af 0a3e 2c98 b43e 5794 e0be
00000080: a267 063f c097 1abd 50c4 f23e de89 d3be
00000090: 5a12 b23e 60c0 10bd 80d3 433e af60 debe
000000a0: c7f8 11bf f07b 5cbd a85e ef3e 6453 b1bd
000000b0: ecdd de3e bc01 bfbd 869b 7ebe 78b6 0d3f
000000c0: 308b 5bbd e0a3 043d cc14 bf3e b6c3 be3e
000000d0: 74a1 dabe c7d4 84be 4cf9 babd 20dd ffbe
000000e0: b070 f83e 1431 9c3e 1952 86be e019 19bd
000000f0: c661 85be 5ed9 acbe e844 113f e2f2 ccbe
00000100: 0cb3 e2be 986b b93e e7e2 cfbe 286f 903e
00000110: f020 babd 30fc ec3e 7f6f 07bf e6c7 bc3e
-0.0735929 0.062160015 0.19491911 0.32250148 -0.027480543 -0.56716216 0.4550233 -0.5571947
-0.28449962 -0.081582725 0.12378514 0.46887875 -0.5210394 -0.23100388 -0.46764293 0.25346124
0.09483355 0.54289556 -0.25369772 -0.20822471 0.51729155 -0.10410163 -0.4749558 0.3666712
0.11385131 0.39109313 -0.010379732 0.15299594 -0.511257 0.13543594 0.35272348 -0.43863174
0.5250188 -0.037742376 0.474154 -0.41316122 0.34779626 -0.035339713 0.1912365 -0.4343314
-0.5702023 -0.053829134 0.46751904 -0.086584836 0.43528688 -0.09326503 -0.24864015 0.5535655
-0.053599536 0.032382846 0.37320554 0.3725869 -0.42701304 -0.25943586 -0.09129581 -0.49973392
0.48523474 0.30506194 -0.2623451 -0.037378192 -0.26051158 -0.33759588 0.5674577 -0.40029055
-0.44277227 0.362149 -0.406028 0.28209805 -0.090883136 0.46286154 -0.52904505 0.3687126

sequential_1/dense_1/MatMul f4 [12, 16]
00000000: df50 6fbe cab0 3ebe fac9 3fbe e304 c1be
00000010: 7c7f 9abe 9a15 33be 00c0 ae39 4816 7a3e
00000020: a43c 443e 883b eebd a4a8 2d3e a2a8 893e
00000030: 1a41 943e aae8 83be 80af 9d3d ec96 303e
00000040: 029e 59be 00f9 b1bd 9c79 ad3e 480a 113e
00000050: 703d 4ebd ba5e ab3e a852 d13e 107e c83c
00000060: 4e17 13be 556b bdbe c01e 763c 7f2c 5dbe
00000070: 00b1 0abb f8c9 253e b226 9fbe 7457 a1be
00000080: 2065 1abc 2459 bebe fa3e 8e3e acf6 0fbe
00000090: 66e1 b83e ecf5 cf3e 0091 693e 0e1b 3cbe
000000a0: 4508 b9be 44be 9e3e 1415 d23e 24be 92bd
000000b0: 7818 d43d 36f3 c9be 7c25 9ebd 004b d73d
000000c0: c064 493e aced c93e 7108 adbe 52b4 e2be
000000d0: 60df 9b3d 7c66 fcbd c4ec bbbe 4e87 7ebe
000000e0: 7eac 9b3e 3893 9fbe 2dce b8be 10ae 8a3d
000000f0: 52cd c0be d043 73be a823 963e 8cff 8dbe
00000100: 80a5 2d3d 0798 b0be 9658 9b3e 3879 1a3e
00000110: 25d0 6fbe d444 cdbe d086 7b3d 201b 743e
00000120: b400 d83e e6ab 7cbe 866d 00be 9ab9 b7be
00000130: 606b b83d b8d7 d6be 48b4 6c3e c632 2fbe
00000140: 3043 dfbe 4024 70bc d4a1 d03e eaf7 973e
00000150: ae78 5fbe 26bd bcbe 9847 233e cc66 11be
00000160: d879 eebd 12dd d33e 400d 5b3e 946b 873e
00000170: 4a76 be3e 2dad 76be 5421 603e 558e e5be
00000180: bc91 dfbd 58bb d4be 924f 8e3e 1083 903d
00000190: e821 903e 68f3 e13e c0e7 d83d ac3a e3bd
000001a0: 68c9 bd3d af8d acbe d2ea 96be a87b e5be
000001b0: 1c17 d0bd 005b bcbc d45e 743e 28e5 f23d
000001c0: a1b8 9fbe 60be b83d 12ff 44be b431 e5be
000001d0: e075 b63d e2e2 d9be bfcf d6be 707e b73e
000001e0: b011 333e 30d6 cf3c 3cf4 233e 1425 d23e
000001f0: b015 c83d c884 73bd 7e4b 49be 5007 d6bd
00000200: 088b 713e 5842 b33d 50c5 70be 3bf7 67be
00000210: 8054 cbbe 2a71 54be 1023 1a3e 6c82 bebe
00000220: f416 f4bd 3c58 f9bd 3e96 c9be 70e9 babe
00000230: ccff c53e 1db0 95be 4061 60bd 78a6 823d
00000240: 6094 a03d 54bf 683e 7455 cebe aad3 32be
00000250: 4e9e 813e 7096 b8be e848 58be 208c dbbe
00000260: d45c 51be 0a3b 1dbe 0c60 273e 6a56 b43e
00000270: 4cbe 8f3e a863 b33e 6a75 95be 0ed8 53be
00000280: 00a8 0f3e 9e39 ec3e 54d4 22be f022 243d
00000290: 7089 8f3d 006a 02be 0078 f93b 3271 8bbe
000002a0: 3036 343e 548a 173e 205f d83e b0fd 61be
000002b0: 7ab4 1cbe 8c26 9bbd 20c8 223c 70a4 9f3e
000002c0: 387c 90be 025b 913e 80dd 873e f8d2 6b3e
000002d0: f8e4 c7bd a08c dcbd a84f e23e c845 6d3e
000002e0: 151f 7fbe 2894 be3e 1857 12bd a8a4 163e
000002f0: 20df 683e d82d f13d c2c7 1ebe 3095 d93e
-0.23370694 -0.18622127 -0.18729392 -0.3769904 -0.30175388 -0.17488709 0.00033330917 0.24422562
0.19163758 -0.116324484 0.16958863 0.2688647 0.2895592 -0.25763446 0.076994896 0.17245072
-0.21251681 -0.08690071 0.33881843 0.14164078 -0.05035156 0.33470708 0.40883374 0.024474174
-0.14364359 -0.3699595 0.01502198 -0.21599005 -0.002116263 0.16190326 -0.3108421 -0.31512034
-0.009423524 -0.37177384 0.27782422 -0.14058942 0.36109465 0.4061731 0.2280922 -0.18369696
-0.36139122 0.31004536 0.41031706 -0.07165173 0.103562295 -0.39443368 -0.07721993 0.10512352
0.1966734 0.39439142 -0.33795503 -0.44278198 0.07610965 -0.12324235 -0.36704075 -0.24856302
0.3040504 -0.31167006 -0.360948 0.06771481 -0.37656647 -0.23756337 0.2932408 -0.2773403
0.04239416 -0.34490988 0.30341023 0.15085304 -0.23419245 -0.40091574 0.061407864 0.23838472
0.42188036 -0.24674949 -0.1254178 -0.3588379 0.09004855 -0.41961455 0.23115647 -0.17109212
-0.43605947 -0.01465708 0.40748465 0.2968133 -0.2182338 -0.3686306 0.1594528 -0.1419937
-0.116443336 0.413796 0.21391773 0.26449263 0.37199622 -0.24089499 0.21887714 -0.44835153
-0.109164685 -0.41549182 0.27795082 0.07056248 0.28150868 0.44131017 0.10591078 -0.11095175
0.09266931 -0.33701846 -0.2947603 -0.44820905 -0.10160658 -0.022992611 0.23864299 0.11860114
-0.31195548 0.09020686 -0.19237927 -0.44764483 0.089092016 -0.4255591 -0.41955373 0.35838652
0.17487216 0.025370687 0.16011137 0.41043913 0.097697616 -0.059452802 -0.19657704 -0.104506135
0.23588192 0.087528884 -0.23512769 -0.22652905 -0.39712906 -0.20746294 0.15052438 -0.3720888
-0.119184405 -0.121750325 -0.39372438 -0.36506224 0.3867172 -0.29235926 -0.054780245 0.06379408
0.078408 0.22729236 -0.4029957 -0.17463556 0.2531609 -0.36052275 -0.21121562 -0.42880344
-0.20445567 -0.15354553 0.16345233 0.3522218 0.28074872 0.3503697 -0.29191142 -0.20687887
0.1402893 0.46137708 -0.15901309 0.04007238 0.07008636 -0.12735748 0.007613182 -0.272348
0.17598796 0.14798862 0.42260075 -0.2206943 -0.15303221 -0.075757116 0.009935409 0.31180143
-0.2821977 0.28389746 0.2653618 0.23029697 -0.09760469 -0.107690096 0.44201398 0.2317115
-0.249142 0.3722241 -0.03572759 0.14711249 0.22741365 0.11776322 -0.15505889 0.42496634
